toynamer/rnn_turkish_name_generator.pth (torch, 23272 bytes, 4 tensors)

weight f4 [32, 92]
000000 fd 08 e8 3e 5f 33 69 bd bb 8f 90 bd d2 93 ca be
       0.45319358 -0.056933757 -0.070586644 -0.39565903
000010 88 ac b5 be 85 7c af 3e e3 f9 00 3f eb f8 d0 be
       -0.35483193 0.34274688 0.50381297 -0.4081491
000020 7f 57 8f 3e 39 2e c1 be 4f d3 19 bf 60 d7 6b 3d
       0.27996442 -0.37730578 -0.60088056 0.057578444
000030 d0 b6 6c 3f 48 85 70 be ee 0c da be d9 2c e0 bd
       0.9246645 -0.23488343 -0.4258799 -0.10946054
000040 73 49 db 3d 5d 10 f1 3d 46 79 a4 3e 38 d3 a6 be
       0.10707369 0.11770699 0.32123774 -0.32583022
000050 79 7d b0 bd 25 d5 ba be 0e ef bb 3e 89 09 99 3e
       -0.08617682 -0.3649074 0.36705822 0.29890087
000060 be 98 96 bd 5b da ef bd 47 b4 22 3e 41 ab 26 3e
       -0.07353352 -0.1171157 0.15889083 0.16276266
000070 31 2d c0 be 58 33 09 3d 34 6b d4 be 1d a0 2a be
       -0.37534478 0.03349623 -0.4148804 -0.16662641
000080 f8 aa 24 3f ba d2 5c 3d 62 25 60 3f e5 11 5b 3f
       0.6432338 0.053911902 0.8755704 0.8557418
000090 18 57 4a bf ab 4b 06 bf 92 77 28 3f 3f c5 b7 3e
       -0.79039145 -0.5245921 0.6580745 0.35892674
0000a0 e8 98 61 bc 51 14 39 3f 03 d1 82 3e 08 3e 0d 3f
       -0.013769366 0.72296625 0.25550088 0.5517278
0000b0 4b 4e b6 3e d2 03 58 bf 8c 33 8a 3f b9 7e 2d 3f
       0.35606608 -0.8438083 1.0796981 0.6777149
0000c0 f0 fc 33 be 7b 74 4e be 0f 65 a1 3f 89 69 2d 3e
       -0.17576957 -0.20161621 1.2608966 0.1693479
0000d0 a5 a6 91 3f a5 17 85 3e e3 23 e4 3e 83 d9 ca 3e
       1.1378981 0.25994602 0.4455863 0.39619073
0000e0 5d c3 33 bf bf 1b 90 3e db 02 7e 3f f1 b2 28 3e
       -0.70219976 0.2814617 0.9922311 0.1647451
0000f0 4a 1b a8 3f 85 7e 14 40 09 90 93 3f ba d2 72 3f
       1.3133328 2.3202221 1.1528331 0.94852793
000100 d3 00 a5 3e e3 77 84 3f e5 15 75 3e 8f d9 e9 3e
       0.3222719 1.0349087 0.23934133 0.45673797
000110 df 47 7f 3f 99 2c 08 3f 5a 23 8f 3e 27 57 8d 3e
       0.9971904 0.5319305 0.2795666 0.27605554
000120 29 31 7c 3f 08 dc 97 3f f9 32 04 bf 45 eb 99 3e
       0.9851251 1.1864023 -0.5164028 0.3006231
000130 43 2c 8b 3e ce 80 02 be 8a c3 21 3e 41 df 1c 3f
       0.27182207 -0.12744448 0.15797248 0.6127816
000140 da 1e d1 3e 66 07 08 3f c7 df d1 3e b0 f3 0d 3f
       0.4084385 0.5313629 0.4099104 0.5544996
000150 da 63 ba 3e 64 fa 92 be bc 58 4d be 82 6e 38 3f
       0.36404306 -0.28706658 -0.2005338 0.7204362
000160 e4 c5 a5 3e af 84 4a 3e 85 40 2f bf ed d2 98 3d
       0.3237754 0.19777177 -0.68457824 0.07462106
000170 23 41 50 3e 98 5f 18 3f 63 07 9c 3e 28 93 31 3c
       0.20337348 0.59520864 0.30474386 0.010838307
000180 4c e2 d7 bd b1 c2 b6 be 1c d2 13 bd 97 43 72 3d
       -0.105412096 -0.35695413 -0.036089048 0.05914649
000190 22 d9 4d 3e 98 a2 3f be e6 3b b6 bd 7b be a7 bd
       0.20102361 -0.18714368 -0.088981435 -0.08190628
0001a0 3a c7 16 be e8 92 0b bd 79 96 a2 3e 1a cb 7e 3e
       -0.14724436 -0.034075648 0.31755427 0.24882165
0001b0 20 31 be 3e dd ef e7 bd 93 22 2d 3e 08 eb 12 bf
       0.37146854 -0.11325047 0.1690772 -0.5738988
0001c0 37 f6 81 3c 8f 2f b5 be a2 9c 5d bd 97 f4 6f 3e
       0.015864475 -0.35387847 -0.054104455 0.23433147
0001d0 ea 07 03 3e 69 1e 8f be 05 d0 4a be ec 1a 48 3d
       0.12795988 -0.2795289 -0.19805916 0.0488538
0001e0 93 29 a0 3e 02 86 81 3e 2f ef 06 3f b1 8f da bc
       0.3128172 0.25297552 0.52708715 -0.026679846
0001f0 16 0c a2 3f ca b0 c0 bf 71 47 04 bf f4 f1 dd bf
       1.2659938 -1.5053952 -0.5167151 -1.7339463
000200 84 8c bc be 17 d3 7e 3f 52 7f 90 bf 24 39 71 bf
       -0.36825955 0.9954085 -1.1288855 -0.94227815
000210 8f 3a c5 bd c5 8f 09 3f b3 01 aa bf c4 fa 53 3f
       -0.0963031 0.53735 -1.3281769 0.8280451
000220 c6 fa 32 be 8f d3 43 bf 87 2e 10 bf 59 d2 e7 be
       -0.17478475 -0.7649469 -0.56320995 -0.4527767
000230 33 75 b5 3e a2 87 9f be b7 ac 0a 3f 79 a7 82 bf
       0.35440978 -0.31158167 0.5416979 -1.0207359
000240 81 7f f3 bc 9e 7b 26 bf 90 9b aa bf b2 b3 02 bf
       -0.029723885 -0.65032375 -1.3328724 -0.51055443
000250 4e ec a7 be 07 b6 2e 3f 19 1e bf be 5e 24 7d bf
       -0.32797474 0.682465 -0.3732765 -0.98883617
000260 2d c9 e2 be f7 5d ac be 58 7e 83 bf 6a 22 c3 bf
       -0.4429411 -0.3366544 -1.0272932 -1.5244877
000270 39 f9 42 3e 40 3e af be 8f a8 81 3f a7 25 7c bf
       0.19040383 -0.3422718 1.0129565 -0.9849495
000280 30 45 ab be 4d d5 92 bf db d5 fb be 90 e7 30 be
       -0.33451223 -1.1471344 -0.49186596 -0.17275834
000290 7c 50 5d 3f da 7c 9c bf 6b c6 47 bf 06 74 37 bf
       0.86450934 -1.2225602 -0.78037137 -0.7166141
0002a0 46 42 6d bf 9e e6 81 3e b4 50 a7 bf 2f c5 c5 3f
       -0.9267925 0.2537126 -1.3071504 1.5450801
0002b0 0c 70 83 be ad 87 0f bf 82 79 2b 3e 4d c1 c0 bf
       -0.25671422 -0.560664 0.1674557 -1.5058991
0002c0 cb c8 31 3f c7 4d 6e bf c1 2d f8 3d 55 6c 37 bf
       0.6944701 -0.9308743 0.12118102 -0.71649677
0002d0 e4 bd 4e bf 92 1b 77 bf 88 cf 4d be 86 9e 7e 3d
       -0.807585 -0.96526444 -0.20098698 0.0621629
0002e0 26 a8 24 3c 76 ed 32 3d b1 6c d9 bd 96 3c ca 3d
       0.010049855 0.04368349 -0.10616434 0.09874837
0002f0 4f 27 59 be 23 76 6f 3e 7d 1a 29 bc af 36 81 3e
       -0.21206401 0.2338491 -0.010321257 0.25237033
000300 f5 21 89 3d 55 ca c0 bd cc b5 5c 3e 7c 63 84 3d
       0.0669593 -0.09413592 0.21553725 0.06464288
000310 77 a2 97 be dd 5b 89 be d3 4a 99 be b8 6b 8c be
       -0.29616138 -0.268279 -0.299399 -0.27425933
000320 de bd 1c bd 9a df 19 3e 79 b1 0e bd 13 7c af be
       -0.03826701 0.15026703 -0.03483722 -0.3427435
000330 99 f2 df 3d 22 18 0e 3e 1d 07 09 3e 68 df d5 bd
       0.10934944 0.13876393 0.1338162 -0.10443002
000340 33 e0 49 bd f7 70 9e ba 08 79 e1 3e 17 32 c9 be
       -0.04928608 -0.001208811 0.44037652 -0.39296028
000350 f9 5d 31 3e 92 9b 3d 3e 89 96 d1 3d 38 3a 00 3f
       0.17321004 0.18516377 0.102337904 0.50088835
000360 c0 f4 c6 3d 66 55 8e 3e 7a c2 89 be fe f0 88 be
       0.09714651 0.2779953 -0.26906186 -0.26746362
000370 d7 47 6f bf 06 4b 39 bf eb f8 39 3e 31 7b 00 3f
       -0.93468994 -0.723801 0.18161361 0.50187975
000380 fb 1d b7 3d b7 b7 19 3f e0 4a 8c bf 52 8e c8 be
       0.08941265 0.6004595 -1.096035 -0.39171082
000390 4b 84 fc 3d 66 a6 5c 3f 3f 77 73 3f 04 8d 44 3e
       0.123299204 0.86191404 0.9510383 0.19194418
0003a0 0c 56 94 3f 19 7d b3 bc bd 26 fe be 63 be d1 be
       1.158876 -0.021910237 -0.4963893 -0.40965566
0003b0 fe 8a b6 3f c6 2c 89 3d 03 b4 e2 bd 96 df 32 be
       1.4261167 0.06697993 -0.11069491 -0.17468104
0003c0 54 43 aa bd d2 c9 ba be 55 72 55 3f bd 5d 10 3e
       -0.08313623 -0.36482102 0.8337758 0.14098258
0003d0 4a f4 42 bd 84 ce 04 be 98 47 d2 3e f9 7a 61 bf
       -0.047596253 -0.12969404 0.41070247 -0.88078266
0003e0 f7 49 2f 3d ff d2 bf bf 7b 9f 2a c0 92 29 ab be
       0.042795148 -1.4986266 -2.665984 -0.33430153
0003f0 bf 94 b5 be 97 83 39 bf 92 23 19 bf e2 1a 9a 3e
       -0.35465047 -0.72466415 -0.598199 0.30098635

bias f4 [32]
000000 43 d8 a3 3e 1c 5e 94 3d 35 e7 50 3c 81 06 13 be
       0.32000932 0.072445124 0.012750437 -0.1435795
000010 d7 4f c3 bd 3b bf 9d bd 78 3b 30 3d 63 86 a1 3d
       -0.095367126 -0.0770249 0.043025464 0.0788696
000020 4a 31 03 3e c8 c4 c9 bd 0d 7b 02 bd c7 86 a4 be
       0.12811771 -0.09851986 -0.03185563 -0.32134077
000030 06 c3 0e bd eb 53 a8 3e 1e 0c 44 bb c9 d8 e5 3e
       -0.034853958 0.32876524 -0.002991445 0.44891956
000040 a0 43 5c 3d 12 8f 95 bb 77 a1 45 be 49 02 d2 bd
       0.05377543 -0.0045641745 -0.19299875 -0.10254342
000050 93 8c 62 be 19 e4 89 bd 09 b7 b9 be 1e 8c 0c 3e
       -0.22123937 -0.06732959 -0.36272457 0.13725325
000060 60 dc 26 3d 33 94 db 3d 1e 17 4b bd d9 f9 b1 3e
       0.04073751 0.10721626 -0.049582593 0.3476093
000070 88 14 a4 3e 40 47 48 3d 6c 01 46 bc 1f a8 43 bc
       0.32046914 0.048896074 -0.0120853 -0.011941939

weight f4 [60, 32]
000000 cf fd e4 be 7d 45 3b bf 3f 13 a2 3e 36 a1 b0 3e
       -0.4472489 -0.73152906 0.3165531 0.34497994
000010 c0 60 81 3e 8c 49 cb 3c 54 eb 9f 3d 13 f2 8a 3e
       0.25269127 0.024815343 0.07808557 0.27137813
000020 75 77 cd be 93 6d 20 3f c9 be 1c 3e 0b 59 5c 3e
       -0.401302 0.62667197 0.15307154 0.21518342
000030 71 96 4c bf 83 8d 03 bf 0b 4e 01 bd 01 2d 77 bf
       -0.79917055 -0.51387805 -0.03156857 -0.96553046
000040 c5 8c 0d bf e6 65 55 be 23 da d5 3d 89 50 df 3e
       -0.5529292 -0.20839652 0.10441997 0.4361613
000050 09 78 e8 3b 0b 64 68 be ec 83 0a 3e d5 29 8a bb
       0.0070943874 -0.22694413 0.13526887 -0.0042164125
000060 d7 ee 35 bd 36 c7 8d 3c 79 01 e6 3e d0 d4 a8 be
       -0.04441723 0.017306905 0.44923 -0.32974863
000070 1c f3 c8 be 8f 50 a0 3d d9 ac d8 be 44 84 b8 3e
       -0.39247978 0.07827865 -0.42319372 0.3603841
000080 b8 05 9b be 01 cd 12 bf b2 28 68 3e 83 d7 9e 3e
       -0.302778 -0.5734406 0.22671774 0.31023797
000090 a2 a0 7b 3e 58 5d 3f 3d 3c ae 0e bc 5c e3 db 3e
       0.24572995 0.04671988 -0.008708533 0.429469
0000a0 9c 87 69 be f2 5a 2f 3f 74 d7 90 3d 3e 45 42 bd
       -0.22805637 0.68498147 0.070723444 -0.047429316
0000b0 da cb 8d bf 5a 28 fa be 7a a3 eb bc ec 41 7d bf
       -1.1077836 -0.4885891 -0.028764475 -0.98928714
0000c0 a6 8b 4e bf 5e 7e a9 be 07 42 3e 3e ef db 24 3f
       -0.80681837 -0.33104223 0.18579875 0.6439809
0000d0 ee c7 7a bc d4 f1 0f be 19 fc 7f 3c b8 b6 32 3e
       -0.015306456 -0.14057094 0.01562407 0.17452514
0000e0 d9 17 73 be 96 90 ce bd 84 92 b0 3e 2d cd 24 bf
       -0.23739566 -0.10086171 0.34486783 -0.64375573
0000f0 dd 29 1c be ed ef af bd a1 c1 0f bf 7c c7 12 3f
       -0.15250345 -0.08590684 -0.5615483 0.5733564
000100 94 55 cd be 75 92 b3 be 29 cc a5 3e 1b ee 0f 3f
       -0.40104353 -0.35072675 0.32382324 0.56222695
000110 77 47 10 3f 27 ea d1 3b ed 64 01 3c 13 3a c9 3e
       0.56359047 0.006406087 0.007897598 0.3930212
000120 7c 99 9f 3d b7 b5 fb 3e 0f c4 28 3e 72 8d 32 be
       0.07792947 0.49162075 0.1648104 -0.1743677
000130 0a 6f 95 bf 40 32 0f bf cc 50 41 3e 96 00 9f bf
       -1.1674511 -0.5593605 0.18878478 -1.2422054
000140 c1 32 73 bf ad 17 bf be c5 88 98 3e 09 0b 4a 3f
       -0.9499932 -0.3732275 0.29791847 0.7892309
000150 b8 6b 00 be 88 df cc bd 7f 3d 00 be d9 be 2c 3e
       -0.12541091 -0.10003573 -0.12523459 0.16869678
000160 65 7b 2b be ab 89 e7 3d d3 f8 2d 3e 95 9f 76 bf
       -0.1674629 0.11305555 0.1698945 -0.9633725
000170 cb 3f 05 be 78 f9 8d bd b8 16 be be 12 18 51 3f
       -0.13012616 -0.06932348 -0.37126708 0.81677353
000180 54 f9 c8 be ad 6f c8 be 7a d0 6e 3e 70 dd e1 3e
       -0.39252722 -0.39147702 0.23321715 0.44114256
000190 91 bb e2 3e 32 cb 85 3c d1 8c 24 3d 4d c7 cf 3e
       0.44283727 0.016332243 0.040173355 0.40581742
0001a0 98 54 3c be f5 19 15 3f a6 96 85 3d 79 61 85 be
       -0.18391645 0.5824273 0.065228745 -0.26050928
0001b0 b7 b3 a1 bf 57 31 0c bf df 2f ec 3d 93 f8 95 bf
       -1.263297 -0.54762787 0.11532568 -1.1716484
0001c0 ba d6 86 bf 23 c5 86 be 0e f9 8d 3e 35 a6 3d 3f
       -1.0534279 -0.26322278 0.27729076 0.74081737
0001d0 a7 da 12 be ee bb d0 bd 00 49 55 be ef fc d0 3d
       -0.14341222 -0.10192095 -0.20828629 0.10204493
0001e0 e1 1a 45 be 44 85 85 3e 72 e3 61 3e 93 9c 52 bf
       -0.19248535 0.26078236 0.2205942 -0.82270163
0001f0 c3 95 42 bd ac 35 28 3b 3a d6 c8 be ed 94 7a 3f
       -0.047506105 0.0025666757 -0.39225942 0.9788349
000200 36 dd cc be 4f 1c d1 be ec 4f 85 3e 15 62 77 3e
       -0.4001252 -0.4084191 0.26037538 0.24158509
000210 e0 e6 ac 3e 7e 1a 3b 3b 76 6d 54 bd bb 36 9b 3e
       0.33769894 0.0028549726 -0.051862203 0.30315194
000220 17 44 00 3c 37 d4 12 3f 50 6d f6 3d c8 71 75 3d
       0.007828734 0.57355064 0.120325685 0.059922963
000230 17 b4 95 bf 9e ac ec be b3 88 12 3d 98 d2 9f bf
       -1.1695584 -0.46225446 0.035774898 -1.2486143
000240 6b 2b 61 bf ef c8 48 be ff 36 4c 3e b3 03 2b 3f
       -0.87956876 -0.196079 0.19942854 0.6680252
000250 9b 62 44 bd d4 0f 83 bd d4 17 19 bc f9 6c 06 3e
       -0.0479456 -0.06399503 -0.00934406 0.13127507
000260 01 a3 8e bd 33 85 ef 3b 5b e4 82 3e bd e0 5d bf
       -0.06964684 0.0073095798 0.25564846 -0.8667105
000270 8f d8 00 be 2b 4b a9 bd 6c 69 d0 be 04 f3 59 3f
       -0.1258261 -0.0826629 -0.4070543 0.8513644
000280 ef 3d a8 be 36 7b 06 bf f7 96 89 3e b2 15 a7 3e
       -0.32859752 -0.52531755 0.2687299 0.3263374
000290 74 d4 96 3e 9e 6f f5 bb 3d bf ad 3d 8d d6 9d 3e
       0.29458964 -0.0074901124 0.084837414 0.30827752
0002a0 60 a2 50 be 93 0a 20 3f d7 c5 f0 3d 8c 27 bd bd
       -0.20374441 0.62516135 0.11756485 -0.092360586
0002b0 b9 9a 91 bf 6b a0 04 bf cc 2e 75 3d 9d 27 8c bf
       -1.1375343 -0.5180728 0.059859082 -1.0949589
0002c0 79 d4 5b bf 25 3e a6 be d3 1a 0b 3d 81 90 33 3f
       -0.8587108 -0.32469288 0.03396113 0.7014237
0002d0 29 ee 52 bc 09 0c 2a be da 3e 71 bd 7d f5 40 3e
       -0.012874165 -0.16606154 -0.05889783 0.18843646
0002e0 58 bf 98 bc a8 e1 6c bd 91 c5 29 3e 6b fb 0b bf
       -0.018645927 -0.05783239 0.16579272 -0.5468051
0002f0 1b 66 6a be 11 79 cc bd ab 58 e1 be a4 bf 17 3f
       -0.22890513 -0.09984029 -0.4401296 0.59276795
000300 2b 73 a7 be e8 61 b5 be 05 c4 b2 3e 4a 4f 04 3f
       -0.32705054 -0.3542626 0.34915176 0.51683486
000310 b2 78 43 3f 6c ce 93 bd 4e 0e 4e 3d cb b4 f7 3e
       0.7635604 -0.07217106 0.05030661 0.48380122
000320 40 52 98 bd 46 b8 13 3f 83 89 aa 3d 36 62 8a be
       -0.07437563 0.57703054 0.083270095 -0.27028054
000330 c6 89 98 bf 9f 7e 20 bf 0e 6d 8c 3d 3f ae a1 bf
       -1.1917045 -0.6269321 0.06856738 -1.2631301
000340 b3 89 72 bf 62 fe d4 be 44 f4 35 3e 95 a9 3e 3f
       -0.9474136 -0.4160033 0.17768961 0.7447751
000350 6a 39 08 be 0f ff 4a bd 2c c2 92 be e6 86 24 3d
       -0.13303152 -0.04955965 -0.28663766 0.04016771
000360 ed 5e d0 be 8c bc e8 3d 50 a8 aa 3e ec a7 7e bf
       -0.40697423 0.113640875 0.33331537 -0.9947498
000370 88 48 b7 3c 11 14 78 3d 56 74 62 be 6d bd 61 3f
       0.022373453 0.06056601 -0.22114691 0.88179666
000380 87 5e ec be df aa 1a bf c8 ae 2e 3e 94 58 b9 3e
       -0.4616587 -0.6041698 0.17058861 0.36200392
000390 3f bc dd 3e 0e 0f a2 bd 1d a1 4b 3e c5 f2 ac 3e
       0.43307683 -0.07913028 0.19885679 0.33778968
0003a0 b9 f7 47 be be 73 04 3f 9a 94 2f 3d d2 18 52 3d
       -0.19528092 0.5173911 0.042866327 0.0512932
0003b0 0f 65 64 bf ca 54 07 bf 99 f1 c0 bd 31 15 91 bf
       -0.89216703 -0.5286375 -0.09421081 -1.1334592
0003c0 4e 63 28 bf e8 40 ca be 26 7e 28 3e df 7e 27 3f
       -0.65776527 -0.39502645 0.16454372 0.65427965
0003d0 62 47 58 bd 8f 60 8f be 12 47 ff 3c e5 72 80 3c
       -0.05280245 -0.28003356 0.031161819 0.015679786
0003e0 cb 09 12 be 3e de 39 bd d4 7e a3 3e 60 11 e3 be
       -0.14261548 -0.045377962 0.319327 -0.44349194
0003f0 8d 50 3e be b6 94 31 bc 9a 2f ce be c6 3f 01 3f
       -0.18585415 -0.010838678 -0.40270692 0.50487936

bias f4 [60]
000000 6d 72 ac bf 1b f6 c0 bf b7 54 07 c0 1f 7e 04 c0
       -1.347242 -1.5075105 -2.1145456 -2.0701978
000010 ba b2 e0 bf 6a af db bf 3b 78 08 c0 fb 60 c9 bf
       -1.7554543 -1.7162907 -2.1323383 -1.5732721
000020 1f 41 87 c1 2c 5f 01 c0 e3 3e 44 c0 2d b0 f1 bf
       -16.906797 -2.0214338 -3.0663383 -1.888189
000030 38 3c 74 c1 ff e9 c5 bf da 71 40 c0 1f 80 d9 bf
       -15.264702 -1.5462035 -3.006949 -1.6992224
000040 76 93 ed bf 02 0e f6 bf 8d b7 e0 bf 32 16 1e c0
       -1.8560627 -1.9223025 -1.7556015 -2.4701047
000050 db 46 08 c0 8a d0 bf bf 85 44 02 c0 56 d1 c1 bf
       -2.1293247 -1.4985516 -2.035432 -1.5142009
000060 b8 53 01 c0 dc e8 10 c0 be cb 14 c0 5c 34 e4 bf
       -2.0207348 -2.2642126 -2.3249354 -1.7828479
000070 13 7e 18 c0 fb 20 4b 3d c3 fb 3b bf ba 74 a4 bf
       -2.382695 0.049592 -0.7343103 -1.2848122
000080 a6 95 a2 bf 8e 24 89 bf e4 58 d6 be d5 6c f2 bf
       -1.2701919 -1.0714281 -0.41864693 -1.8939463
000090 4a 33 80 bf b9 d8 a9 bf 35 67 5c bf c6 9a 94 bf
       -1.0015652 -1.3269264 -0.8609498 -1.1609733
0000a0 c1 75 81 be a4 a8 04 c1 0c d1 50 be 6c 8c 9e be
       -0.25285152 -8.291172 -0.20392245 -0.30966508
0000b0 52 e4 af be 93 c1 fe be 27 f2 39 bf 1f 2e be bf
       -0.34353882 -0.4975706 -0.7263512 -1.4857825
0000c0 69 6d db bf 5f 6d bc be c0 ef 2d bf 44 6b 65 bf
       -1.7142764 -0.36802194 -0.67943954 -0.896168
0000d0 ed aa 81 be 1f 08 64 bf 5d 8b 7a bf 9a 17 9c bf
       -0.2532572 -0.8907489 -0.978689 -1.2194703
0000e0 5f 2a 79 bf 03 c6 98 bf 62 e6 86 c1 19 97 15 bf
       -0.9733028 -1.1935428 -16.862492 -0.5843368
